…
称为 pool 1 output。 通常在文献中，对层数有两种说法。一是将卷积层和池化层并称为一层，二是将卷积层和池化层分开，单独各称为一层。实际上，人们通常认为有权重（即有参数）的层才算神经网络层，而池化层不存在权重和参数，因此在这里我们将卷积层和池化层共称为一层。 接着，我们继续建立一个卷积层和池化层，步骤如下，超参数设定见下图： 那么经过卷积层2，得到输出 $10 \times 10 \times 16$ ，经过池化层2，得到输出 $5 \times 5 \times 1$6 。我们将卷积层2和池化层2统称为第二层。那么输出共有400个元素，我们将输出结果拉直成一维向量。 最后建立全连接层，全连接层1包含120个节点，上一层的400个节点和全连接层1 的120个节点完全连接。全连接层和我们之前所说的标准神经网络是一样的，那么这里的参数 $W_3$ 的维度则为 $120 \times 400$ 。然后继续建立全连接层，不断将输出的维度缩小，直到最终 Softmax 函数的输出为10，表示从0 到 9 这10个数字。 这就是一个完整典型的卷积神经网络，其中包含了许多超参数，在以后的课程中会给出如何选择这些超参数的建议。 那么我们最后总结一下每一层神经网络输入和输出的维度，见下表： Actication shape Activation Size Paramerter Input (32,32,3) 3072 0 CONV1(f=5,s=1) (28,28,8) 6272 208 POOL1 (14,14,8) 1568 0 CONV2(f=5,s=1) (10,10,16) 1600 416 POOL2 (5,5,16) 400 0 FC3 (120,1) 120 48001 FC4 (84,1) 84 10081 Softmax (10,1) 10 841 值得注意的几点是： (1) 池化层是没有训练参数的； (2) 卷积层的参数，相对于输入矩阵包含的元素，是非常少的； (3) 神经网络越深的层中，输出的元素逐渐越来越少；但如果减少得太快，那么对神经网络效果也不会太好。 (4) 为了将不同类型的层结合在一起，从而建立一个有效的卷积神经网络，必须对每层输入和输出的维度和结构有足够清晰的认识。 Why convolutions?这节我们来聊聊为什么卷积有效，以及如何使用样本去训练卷积神经网络。首先，和普通全连接层相比，卷积层主要有两个优势：参数共享 (parameter sharing) 和稀疏连接 (sparsity of connections) 。 Parameter sharing: A fearture detector (such as a vertical edge detector) that’s useful in o
…
